…
      "outputs": [
        {
          "output_type": "stream",
          "name": "stdout",
          "text": [
            "Model: \"model\"\n",
            "_________________________________________________________________\n",
            " Layer (type)                Output Shape              Param #   \n",
            "=================================================================\n",
            " input_1 (InputLayer)        [(None, 10)]              0         \n",
            "                                                                 \n",
            " dense (Dense)               (None, 300)               3300      \n",
            "                                                                 \n",
            " dense_1 (Dense)             (None, 256)               77056     \n",
            "                                                                 \n",
            " dropout (Dropout)           (None, 256)               0         \n",
            "                                                                 \n",
            " dense_2 (Dense)             (None, 128)               32896     \n",
            "                                                                 \n",
            " dense_3 (Dense)             (None, 64)                8256      \n",
            "                                                                 \n",
            " dropout_1 (Dropout)         (None, 64)                0         \n",
            "                                                                 \n",
            " dense_4 (Dense)             (None, 32)                2080      \n",
            "                                                                 \n",
            " dense_5 (Dense)             (None, 16)                528       \n",
            "                                                                 \n",
            " dense_6 (Dense)             (None, 8)                 136       \n",
            "                                                                 \n",
            " dense_7 (Dense)             (None, 4)                 36        \n",
            "                                                                 \n",
            " dropout_2 (Dropout)         (None, 4)                 0         \n",
            "                                                                 \n",
            " dense_8 (Dense)             (None, 1)                 5         \n",
            "                                                                 \n",
            "=================================================================\n",
            "Total params: 124293 (485.52 KB)\n",
            "Trainable params: 124293 (485.52 KB)\n",
            "Non-trainable params: 0 (0.00 Byte)\n",
            "_________________________________________________________________\n"
…
